…
chool","userId":"12496841207460953602"}},"outputId":"5c79f955-b33a-4459-b9a9-0c69f5009b61","execution":{"iopub.status.busy":"2024-09-13T07:17:53.766246Z","iopub.execute_input":"2024-09-13T07:17:53.767257Z","iopub.status.idle":"2024-09-13T07:17:54.038118Z","shell.execute_reply.started":"2024-09-13T07:17:53.767210Z","shell.execute_reply":"2024-09-13T07:17:54.037039Z"},"trusted":true},"execution_count":29,"outputs":[{"execution_count":29,"output_type":"execute_result","data":{"text/plain":"BertForTokenClassification(\n  (bert): BertModel(\n    (embeddings): BertEmbeddings(\n      (word_embeddings): Embedding(28996, 768, padding_idx=0)\n      (position_embeddings): Embedding(512, 768)\n      (token_type_embeddings): Embedding(2, 768)\n      (LayerNorm): LayerNorm((768,), eps=1e-12, elementwise_affine=True)\n      (dropout): Dropout(p=0.1, inplace=False)\n    )\n    (encoder): BertEncoder(\n      (layer): ModuleList(\n        (0-11): 12 x BertLayer(\n          (attention): BertAttention(\n            (self): BertSdpaSelfAttention(\n              (query): Linear(in_features=768, out_features=768, bias=True)\n              (key): Linear(in_features=768, out_features=768, bias=True)\n              (value): Linear(in_features=768, out_features=768, bias=True)\n              (dropout): Dropout(p=0.1, inplace=False)\n            )\n            (output): BertSelfOutput(\n              (dense): Linear(in_features=768, out_features=768, bias=True)\n              (LayerNorm): LayerNorm((768,), eps=1e-12, elementwise_affine=True)\n              (dropout): Dropout(p=0.1, inplace=False)\n            )\n          )\n          (intermediate): BertIntermediate(\n            (dense): Linear(in_features=768, out_features=3072, bias=True)\n            (intermediate_act_fn): GELUActivation()\n          )\n          (output): BertOutput(\n            (dense): Linear(in_features=3072, out_features=768, bias=True)\n            (LayerNorm): LayerNorm((768,), eps=1e-12, elementwise_affine=True)\n            (dropout): Dropout(p=0.1, inplace=False)\n          )\n        )\n      )\n    )\n  )\n  (dropout): Dropout(p=0.1, inplace=False)\n  (classifier): Linear(in_features=768, out_features=23, bias=True)\n)"},"metadata":{}}]},{"cell_type":"code","source":"FULL_FINETUNING = True\nif FULL_FINETUNING:\n    param_optimizer = list(model.named_parameters())\n    no_decay = ['bias', 'gamma', 'beta']\n    optimizer_grouped_parameters = [\n        {'params': [p for n, p in param_optimizer if not any(nd in n for nd in no_decay)],\n         'weight_decay_rate': 0.
…
